model.pkl (torch, 180463 bytes, 10 tensors)

c1.weight f4 [6, 1, 5, 5]
00000000: 1d37 5a3e 260f c33e 182e 013e 0bd6 babd
00000010: cf78 dc3c d250 dabd 7773 a53e e4dc 853e
00000020: 37af 9e3e 3d49 81bd 02eb 85be 165b 36be
00000030: ea1c f73d a2ef 783e 1e66 3a3e e78a 36be
00000040: 61b0 cbbe 173a 88be 03da 8bbc 1779 d73d
00000050: de17 4cbe fe23 acbb aaac 87be 3adb cbbe
00000060: 677c 3cbe f9d3 58be 1a3d 1b3e 55c1 57be
00000070: 22ae 24be a6f0 d9be 35f7 a33b 9685 033e
00000080: 7887 ab3e f314 9a3d a47d a1bd 6de2 d43d
00000090: 8b83 d03d 7a38 033f f5c7 fe3e 218c 15bc
000000a0: 2811 7abd 1433 10be 2618 40bd 9721 9c3e
000000b0: d58c 133e ff13 8bbe 1bd3 26be 787a c5be
000000c0: abee 963d 00d4 debc cf96 0bbe 2c3f 53bd
000000d0: 8d02 97be 6b73 753e 46d6 d73e f5bc 83be
000000e0: 51de a5be a419 17be 1887 733e 069b 633e
000000f0: 2bdd 7bbe ede6 3abe 4391 2a3d faa8 ec3e
00000100: f670 5d3e f35b 31be 7c4c 45be 4ea8 4e3e
00000110: e57c 883e 4019 913d be51 9ebd a96e ce3d
00000120: c7f1 ab3d 3d4e 2a3e 5932 89bd 34a8 c63d
00000130: 7327 04be b7bd 50be 8a74 cabe 3feb 79be
00000140: 7837 2d3e aabc e6bd aeb5 6abe 60b0 0bbc
00000150: 85fc ef3d 56d8 0b3e 7ae0 06be 44f3 423c
00000160: 6975 5f3e 7dd7 cc3e 9a30 2e3e 1fad 943e
00000170: 211a 093f 2c95 a83e 502e dd3c a184 c63d
00000180: 0508 6f3e 170c c9bd cc25 2cbe 1eb3 23be
00000190: 7847 2f3e 93e1 203e bf7e ae3e c446 983e
000001a0: 91e1 b83e 7f7d 7ebe a399 ac3d cec7 d8bc
000001b0: ab20 0dbe 51c9 5cbe e3ec 24be 87ea b9be
000001c0: e2f3 8bbe a1d7 4bbe 4a7b c5be e718 8fbe
000001d0: e489 b1be 5bc1 c3be c2e2 a4be 94c0 1fbd
000001e0: 2143 003e 78de 393e d219 213e fbd2 3b3e
000001f0: 3ace 383e 1cc8 623d fee8 933d 7441 29be
00000200: f8ca 0a3d 79e5 ff3d 52bb 60bd a31b 88be
00000210: ce8b 23be a031 63be c06e 7cbe f7c5 28be
00000220: 4e83 d1bd 80ac 66be f2c5 6dbe c82a 3ebe
00000230: 56a9 87be cdf8 a9bd 90f8 da39 3ef7 8cbc
00000240: 0dbd 1bbe 417b 90be 495b 52be ef3c 083e
00000250: d584 98bd 6392 9f3e
0.21310087 0.38097495 0.1261524 -0.09122857 0.026913075 -0.106599465 0.32314655 0.2614509
0.30993053 -0.06312797 -0.2615586 -0.17808184 0.12066062 0.24310163 0.18203017 -0.17826425
-0.39783004 -0.2660682 -0.01707173 0.10521143 -0.1993098 -0.005253314 -0.2649892 -0.39815694
-0.1840683 -0.21174611 0.15160027 -0.21069844 -0.16082051 -0.42566413 0.0050038346 0.12843928
0.33501792 0.07523527 -0.07885292 0.1039475 0.1018134 0.5125805 0.4976193 -0.009127648
-0.061051518 -0.14081985 -0.04689803 0.30494377 0.14409192 -0.27163693 -0.16291468 -0.3857
0.07369741 -0.027200699 -0.13631748 -0.051573917 -0.29494134 0.2396981 0.42155665 -0.257301
-0.32396176 -0.14755875 0.23782003 0.22227105 -0.24596088 -0.18252154 0.04164244 0.4622267
0.21625122 -0.17320232 -0.19267458 0.2018139 0.26657787 0.07084894 -0.07730435 0.100797005
0.08395725 0.16631408 -0.06699056 0.09700051 -0.12905674 -0.2038487 -0.39542037 -0.24406146
0.16915691 -0.112664536 -0.22920868 -0.008525938 0.11718086 0.13656744 -0.13171569 0.011898819
0.21822132 0.40008155 0.17010728 0.2903833 0.53555495 0.3292631 0.026999623 0.09693266
0.23342903 -0.09816759 -0.16811293 -0.15986297 0.17117107 0.1571105 0.34081075 0.2974149
0.36109594 -0.2485256 0.084277414 -0.026462462 -0.13781993 -0.21561171 -0.1610599 -0.36311743
-0.27334505 -0.19906475 -0.38570625 -0.27948686 -0.34675515 -0.38233456 -0.32204252 -0.039002016
0.12525608 0.18151271 0.15732506 0.18342201 0.18047419 0.05536662 0.07222174 -0.16528875
0.033884972 0.1249494 -0.054866143 -0.26583585 -0.159713 -0.22186899 -0.24651623 -0.16481768
-0.102301225 -0.22526741 -0.23220041 -0.18571007 -0.2649638 -0.08299408 0.00041765394 -0.017207738
-0.15208836 -0.28219035 -0.20542635 0.13304494 -0.07447211 0.31166372

c1.bias f4 [6]
00000000: b71e 12bd 9da4 1c3e 2a01 9abe 402f 2d3d
00000010: 107b 603d 23ae 393e
-0.035673823 0.1529717 -0.30079013 0.04228139 0.05480486 0.18132834

c3.weight f4 [16, 6, 5, 5]
00000000: 598b a13c 2963 41ba f15d fbbc 663d 8b3d
00000010: 9785 9ebd 2c6b 023d 56e4 9ebd 3511 fabb
00000020: 19f0 8c3c adf3 5dbd fc6c 1a3d 2692 ae3c
00000030: 057c c3bd 0c79 233d 49dd ac3d 8fb7 3f3e
00000040: 196e 0c3e 3afa d5bc 0fac b7bc b5cd 833d
00000050: 2bd3 bdbd 14ad 593e 2a98 5b3e 5594 1c3e
00000060: 3484 8c3d 54c6 13be 1433 36bd 849e 543d
00000070: ab1d ca3d 1a33 6fbd 0d4b afbd a92e 71be
00000080: bde7 4dbc f328 73bb b406 24bd f1e7 1e3e
00000090: 9fcc 1b3e 090a 5a3c b6cb f53d fb63 70bd
000000a0: dd32 053d f365 993e 4d8b 1e3e 839c 023e
000000b0: f2f8 09bd 18ac 02be 6329 663c 19d0 723e
000000c0: 2968 633d 62d3 81bc 479a 3dbe 30dc cf3d
000000d0: 71d6 b83d 5bf2 193e 7d94 95bc e64e a83c
000000e0: cdb3 a1bc 42a3 1ebe b854 d1bd 224a 11bd
000000f0: 4984 09be b8a6 84be c695 7cbe dac0 aa3c
00000100: 5f25 6b3b 3bc6 053d 84b6 e2bd 096c 00be
00000110: ff18 31bc 0438 53bd adae 72bd ed65 41bd
00000120: f564 4d3c 20e8 e5bc cab7 66be 8fe5 1fbc
00000130: 6433 90bc 5784 41bc 69a9 39be 1d02 56bd
00000140: 8935 683d 4670 9a3c 3c1d f4bb cdc0 afbd
00000150: 5a6d 5abd 86fe 94bb b99d 493d 53f2 823e
00000160: 0077 a23d 9d37 903d 42c1 123d fdcc d43d
00000170: 3aaf 4a3e a8da 863e 8888 363c 5b62 ebbd
00000180: 7e2e 44be bab1 f2bd 717e dbbb 0821 75bd
00000190: b52d 54bd aced 91bd b8ce 48bd 63a5 06bd
000001a0: 6ce2 54bd 4770 063d 5c4d 0a3e df4c a83d
000001b0: f979 3a3d 590e 75bd 4579 ddbc 0f5c 5b3c
000001c0: df3c a2bb 1547 f5bc b634 3ebd 68c8 053d
000001d0: 0743 8f3d 2046 933d 83db 143d 2a9a 48ba
000001e0: 9c4e 2b3d edd9 36bb c24e 8b3b 2ad8 6b3d
000001f0: 04b7 d1bd 2e05 31bd e3d0 50bc f426 5ebd
00000200: e2b2 7ebd 37cd d0bd 5a4b 063d c4e5 da3b
00000210: e863 c7bb afaa f1bd 3a26 46be 725e f1bd
00000220: bd81 74bd 4472 fab8 7fad 9abc 885e bcbd
00000230: ee42 90bd 67bc d9bd cd9f 93bd b8a9 943c
00000240: 14b8 68bd 8471 393b 99b9 903c 24bb 55bd
00000250: 1e8e f9bd 37b7 a3bc c0d8 58be 0ce3 34be
00000260: 8a56 06be a58d 1abb 7a56 aabc 4ca2 c8bd
00000270: 5ff3 45bd 7880 7dbd b779 273d b506 873c
00000280: 59a9 973c 73ac eb3d b94f 253d dd72 9b3d
00000290: 7065 683d 9c73 efba 0972 c83d 9a7b 8a3d
000002a0: 8df4 223d e69e 09be ee15 4cbd e481 02be
000002b0: 7a5d 01be 55b2 23be 2600 f8bd aad4 1bbd
000002c0: d263 ffbc da24 49bd 043d 22be d938 cebd
000002d0: d3d1 ccbc ee12 b13d 165a 983c 125f 143c
000002e0: ff74 063e 9d69 18bd 2f1d e13d 78c8 713e
000002f0: 1d9d 583e 6007 1d3d 6422 fabc 9117 82bd
00000300: 7337 3abe 4e23 80be e7b8 a7be 37a2 05bd
00000310: e3d9 1cbe 1f12 16be 3270 c6bc a41f 3a3d
00000320: 4167 1a3e 72af 173c 7415 49bc 3eab 893d
00000330: 4e87 59bd 7810 b13d 9b73 01be 712b efbd
00000340: b846 1abd 5a94 49be 1bf8 babb 65c2 5ebe
00000350: 5c8c 91bd 10d0 35bd fd97 09be a545 45bd
00000360: 9b42 42be 0dbc 3cbe 92a9 bebd d72a 83bd
00000370: dadd 45bc 3b18 1cbe 4f3f 91bc a8ce a33d
00000380: e909 663c 786e 9bbd c2bd 79bd 20ca 5abd
00000390: 381e e1bd 3359 e43c 37d2 cbbd 04b9 ca3c
000003a0: 77bb 603e d254 3f3e ce5b c43d eaea 27bd
000003b0: 7933 8e3d 5e6c 3e3e 194d 773d 72b6 45be
000003c0: a973 c6bd 655b 9ebd 7f8f 95bd c0ed f5bd
000003d0: 10a2 2dbc 2828 47be 5312 5ebd 2d87 a6bd
000003e0: 13d9 413d e994 52bd 9f0b 61be 3bc6 d7bd
000003f0: 4662 0f3d adbc 623c 7e13 ee3d 84a2 e4bd
0.019719766 -0.0007377142 -0.030684443 0.0679882 -0.07740324 0.03184049 -0.077583954 -0.007631446
0.017204331 -0.054187465 0.03770159 0.021309923 -0.09545139 0.03991036 0.08440644 0.18722366
0.13713874 -0.026120294 -0.022420911 0.0643572 -0.09268793 0.2125743 0.21444765 0.15290959
0.06861153 -0.14431125 -0.044482306 0.051908985 0.0986894 -0.058398344 -0.08559237 -0.23552956
-0.012567458 -0.0037103265 -0.040045455 0.15518166 0.15214776 0.013308057 0.120017454 -0.0586891
0.03251921 0.29960594 0.15482827 0.12755017 -0.03368468 -0.12760961 0.014047953 0.23712195
0.055519257 -0.015847865 -0.18515883 0.10149419 0.090252765 0.15033858 -0.018259281 0.020545434
-0.019739056 -0.15491965 -0.10221237 -0.03547109 -0.13429369 -0.25908446 -0.24666509 0.020843912
0.003588043 0.03265975 -0.11069968 -0.12541212 -0.010809182 -0.051567093 -0.059248615 -0.047216345
0.012536277 -0.028064787 -0.22531047 -0.009759321 -0.01760263 -0.011811337 -0.18131031 -0.05224811
0.05669168 0.018852364 -0.007449774 -0.08581696 -0.053326942 -0.004546943 0.04922268 0.25575504
0.07932854 0.070418574 0.035828836 0.10390661 0.19793406 0.26338696 0.01114095 -0.11493369
-0.1915836 -0.11850305 -0.0066984226 -0.059845954 -0.051801402 -0.071254104 -0.049025267 -0.03287257
-0.051973745 0.03282192 0.13506073 0.08217787 0.04552648 -0.059828136 -0.027035365 0.013388648
-0.004951104 -0.029941121 -0.046436988 0.032661825 0.06995206 0.0719111 0.036342155 -0.0007652367
0.041823015 -0.002790089 0.004251332 0.057579197 -0.102399856 -0.04321783 -0.012745115 -0.054236367
-0.062182315 -0.101953916 0.032786705 0.006680222 -0.006084908 -0.118001334 -0.1935052 -0.11785592
-0.05969404 -0.000119422126 -0.018881558 -0.09197718 -0.07044016 -0.10631638 -0.07208214 0.018147334
-0.056816176 0.002829642 0.017666625 -0.052180424 -0.1218531 -0.019984825 -0.21176434 -0.17664737
-0.1311895 -0.0023582962 -0.020793188 -0.09796581 -0.0483278 -0.061890095 0.04088756 0.01648269
0.018513368 0.115075015 0.040359233 0.07590268 0.056737363 -0.0018268707 0.097873755 0.067618564
0.039784003 -0.13439521 -0.0498256 -0.12744862 -0.12633315 -0.15985997 -0.12109403 -0.03804461
-0.031175528 -0.04910741 -0.15843588 -0.100694366 -0.025002396 0.08646189 0.018597644 0.00905587
0.13130568 -0.037210096 0.109918945 0.23611629 0.21153684 0.03833711 -0.030533977 -0.06352151
-0.18185215 -0.25026935 -0.32758257 -0.032625403 -0.15317492 -0.1465535 -0.02422342 0.04544033
0.1507845 0.009258138 -0.012273181 0.06722115 -0.053107552 0.08645719 -0.12641756 -0.11678208
-0.0376651 -0.19685498 -0.005705846 -0.21753843 -0.071068496 -0.044387877 -0.13436885 -0.04816212
-0.1897072 -0.1843111 -0.09309687 -0.064046554 -0.012076819 -0.15243618 -0.017730383 0.07998401
0.014040449 -0.075894296 -0.060971983 -0.053415418 -0.10992092 0.027874565 -0.09952205 0.024746425
0.21946512 0.186847 0.09587823 -0.040995516 0.069434114 0.18596026 0.06037626 -0.19307879
-0.09690029 -0.07732276 -0.0730276 -0.12008238 -0.010597721 -0.19448912 -0.054216694 -0.081312515
0.04732616 -0.051411543 -0.2197709 -0.10535856 0.03500583 0.013838929 0.116248116 -0.1116381

c3.bias f4 [16]
00000000: 2bd8 c8bd cd91 36bd 7338 483d 2bdb fdbb
00000010: 261c 173c 9a25 5cbb 1943 4bbd 8008 c6ba
00000020: 27ba 6d3d 6e2c e9bc 514e 7d3c 7d6c 3c3d
00000030: 8041 bebb c490 3abd 411e 693c 0c09 213a
-0.09806856 -0.04457264 0.04888196 -0.007747074 0.00922302 -0.0033591748 -0.049624536 -0.0015108734
0.058038857 -0.028463569 0.015460567 0.0460019 -0.005806148 -0.045548216 0.0142284045 0.00061430107

fc1.weight f4 [120, 256]
00000000: f8ea b2bd 1ea7 adbc fa6c 7cbd dad5 ccbc
00000010: 92ba bebc 1efa 1a3d 08a8 8fbc ad68 85bd
00000020: 788e 06bd 6af3 143d ee21 13bd cf54 14be
00000030: dfbb 53bd eac3 fbbd 6d4d 39bc c962 c3bc
00000040: ad85 c3bd aea0 84bc 6c80 4e3d 5bd8 3d3c
00000050: e318 b5bd 09fa 8c3c d5d8 033d 17fe 043d
00000060: 1979 38bd 8092 3a3d b222 843d 3fb9 ac3c
00000070: 2b19 f5bc 2c0d 05be 9eed 4b3c 0a0a cdbc
00000080: f462 0dbd d706 cd3c 945c 3538 c4a0 963d
00000090: 6e07 8bbc 7bd3 3bbd 0151 e23c 59f2 fb3b
000000a0: 542d 8bbc 26be fe3d a09f 87b9 0faf 1a3c
000000b0: bba0 433c 23ea c53d d505 08bd c407 db3c
000000c0: 87b3 98bd 2e29 0cbd ea2c d0bd 383d 5bbd
000000d0: aff2 013d 27aa d0bc c68c fe3c 843a ff3c
000000e0: bb76 f13c 1cdd 663c 122a 3ebd 5834 bebd
000000f0: 36ba c23a e68b d3bd 1444 6d3d c117 8bbc
00000100: fcdf 3a3d 15c8 353c ec17 5b3d 70bc 0abd
00000110: 6eaf 96bc ff72 2e3d 7726 07bb 502d 96bd
00000120: 333f 5fbd 767d dcbd eb40 7cbd 2a3a 8c3c
00000130: 8f79 2dbd 5948 34bd 3b57 483d f405 9a3d
00000140: 282c f23c f982 403c e61b 08bd 8a2d a13b
00000150: f673 31bb 8404 6e3a 11eb a13d 2e34 ca3d
00000160: df8e 003c a81c 5c3d 6598 0ebd 2729 103c
00000170: 8716 9bbd 21ca 863d 719b 6d3d 6528 97bb
00000180: 15ef 333d a5b9 453c f902 48bb af5c 8cbd
00000190: ff09 053d 2022 633d a267 f2bc 79da 113d
000001a0: f397 5c3d 1073 24bd 9106 4ebd d74e 23bc
000001b0: 5cab 033d 1ba8 2c3d 99ed 9e3c d758 733d
000001c0: aae9 e63a 58ee ddbc 5072 093c cec9 14bd
000001d0: 9d8f 18bd 45e4 513b 64a5 de3d 5ee8 c7bd
000001e0: 7048 35bd 0753 bc3c 90fb b63c 6a2f a1bd
000001f0: e055 b1bd 346c 3ebd 65e3 bd3d 6608 7dbd
00000200: 9544 e8bb 2f51 833c 2e5d 503d d9bc 033d
00000210: 4604 2bbd e891 84bd 5f46 a43d 12e5 5c3c
00000220: 48c1 cdbc a60d 083c b2ab 903d 5b78 d8bc
00000230: 9ec6 453d 5278 d43b fd40 69bd cff6 25bc
00000240: 8280 46bd 3a0a ea3c 9f29 1c3d 945a 8a3d
00000250: af74 443c aad3 f2bc 3c30 bd3d 55b4 1cbd
00000260: 3047 5f3d 561c a13d 46ab a73c 2fc6 46bd
00000270: 8dd2 9b3c 6ffd 433d 06b8 9abd e7a7 23bd
00000280: b292 7dbd b3fe edbc 8bc5 b8bd b6ae b83d
00000290: 17dc dd3c cf93 453d 92fa a8bc 0c9c 80bd
000002a0: e8d0 0abc cd78 a43c 0b28 b8bd 0366 edbd
000002b0: 054b 01bd 4cd6 9ebd fd27 aabd b8fe d9bd
000002c0: 8be2 df3c 3ec5 873d 1fb1 02bd a7dc aa3c
000002d0: e4a8 283d d934 7cbd 7a59 643d 1818 803d
000002e0: 7051 3b3d edc6 93bc bbc8 5a3d 9d70 063d
000002f0: c95b 83bc 1f00 acbc e7c4 3b3d 25b0 51bd
00000300: fcbb 56bd dd25 a53c 8cc6 2d3c e5b6 28ba
00000310: 44f3 f33c 78e1 45bc fa05 0c3c ac3e 75bd
00000320: 9f78 95bd f5db aebd 19d2 14bc f4de 71bc
00000330: 521b 75bc b313 8ebd c986 ae3d 7a08 513d
00000340: 99a8 a63b b41c 14bd 32cb 4cbc 9019 403c
00000350: dcc3 b1bd a68a c93b 602e c13d ebb8 4cbd
00000360: f37d e7bd ac7a 523d d00b 8bbd 980a f6bc
00000370: 635c efbc 03e5 103d 28f1 22be 6cd7 eabc
00000380: 9193 0d3d 498c 87bc 7768 313d d373 74bd
00000390: dcc5 c03c f86a 67bd 33c9 b33b 0d9f e03c
000003a0: cf64 2a3d 6a46 a1bd 02ab d8bc 9ee6 3fbd
000003b0: 8bd6 13bc a265 63bd 7a25 29bd b0a6 c8bc
000003c0: c0b1 213d dfeb d03b 2e74 843d 6af1 98bc
000003d0: faa0 c0bc 0d15 403d 93eb 483c 0783 d43b
000003e0: e2bb bbbc f8be 233d 4851 963c a822 373d
000003f0: a444 da3c 99cd a4ba 7fb7 223d 7611 b4bc
-0.08736223 -0.021197852 -0.061627366 -0.025004316 -0.023282323 0.037836187 -0.017536178 -0.06514106
-0.032850713 0.03636495 -0.03592103 -0.14485477 -0.05169284 -0.12293227 -0.011309964 -0.023850815
-0.09546981 -0.0161899 0.05041544 0.011587228 -0.088426374 0.01720907 0.03218921 0.03246888
-0.045037363 0.04554987 0.0645193 0.021084426 -0.029919228 -0.12993306 0.012446789 -0.025029201
-0.034518197 0.025027676 4.3239983e-05 0.07354882 -0.016971316 -0.04585598 0.027626516 0.007688802
-0.016989388 0.12438612 -0.00025868136 0.009441151 0.011940177 0.09663799 -0.033208687 0.026737101
-0.07456117 -0.03421896 -0.10164817 -0.05352518 0.03172558 -0.02547176 0.031072985 0.031155832
0.02947556 0.0140908025 -0.04642684 -0.092873275 0.001485652 -0.10329418 0.057926252 -0.0169791
0.045623764 0.011095067 0.05348961 -0.033871114 -0.018394198 0.042590138 -0.0020622292 -0.073328614
-0.05450363 -0.10766117 -0.061585348 0.017117579 -0.042352255 -0.04401431 0.048911314 0.07520667
0.029562071 0.011749976 -0.03322973 0.0049187588 -0.0027077175 0.00090796524 0.079061635 0.09873234
0.007846563 0.053738266 -0.034813304 0.008798874 -0.07572656 0.06581522 0.05800957 -0.0046129697
0.04392918 0.012068187 -0.003051935 -0.068536155 0.032480236 0.055452466 -0.029590432 0.035608742
0.053855848 -0.040148795 -0.05029923 -0.009967527 0.032145843 0.042152505 0.019400405 0.059410896
0.0017617245 -0.02709119 0.008389071 -0.03632527 -0.037246335 0.0032026928 0.108713895 -0.097611174
-0.044258535 0.02298881 0.022336751 -0.07870372 -0.086589575 -0.04648991 0.09271888 -0.061775587
-0.0070882537 0.016029922 0.050870113 0.03216252 -0.041752122 -0.06473142 0.08021235 0.013482349
-0.025116578 0.008304035 0.07063998 -0.026424577 0.04828512 0.00648407 -0.056946743 -0.010129645
-0.0484624 0.02856933 0.03812563 0.06755558 0.01199071 -0.029641945 0.092377156 -0.038257916
0.05451125 0.07866733 0.020467412 -0.048528846 0.019021297 0.047849115 -0.07554631 -0.039955046
-0.061907478 -0.029052114 -0.09022053 0.090176985 0.027082486 0.048236664 -0.020627294 -0.062797636
-0.008472659 0.020077134 -0.089920126 -0.11591723 -0.031565685 -0.07755718 -0.083084084 -0.10644287
0.027329704 0.06629418 -0.031907197 0.020857168 0.04117669 -0.061573837 0.055749394 0.062545955
0.04573196 -0.018039191 0.053414088 0.03282224 -0.016034978 -0.020996151 0.045842078 -0.051193375
-0.05242537 0.020159656 0.010606419 -0.0006435945 0.029779084 -0.012077682 0.008546347 -0.05987422
-0.07298397 -0.08538047 -0.009083294 -0.014762629 -0.014960127 -0.06937351 0.08521802 0.051033475
0.0050860164 -0.036160186 -0.012499617 0.011724845 -0.08679935 0.0061505614 0.094326735 -0.04998104
-0.1130332 0.05138652 -0.067893624 -0.030034348 -0.029218858 0.035374653 -0.15912306 -0.028667174
0.03456456 -0.016546385 0.043312516 -0.05968077 0.023531847 -0.056498498 0.0054866313 0.027419591
0.041600045 -0.078747585 -0.02644873 -0.046850793 -0.009023319 -0.055516846 -0.041295506 -0.024493545
0.039476156 0.0063757743 0.06467472 -0.018669803 -0.02351426 0.046895076 0.0122631965 0.0064853462
-0.022916738 0.039977044 0.018349305 0.044710785 0.026644059 -0.001257348 0.039725777 -0.021980982

fc1.bias f4 [120]
00000000: 3092 543d ed73 263c 78e5 273b 2888 9abc
00000010: 2120 f13b 6c8e 1a3d 0c3c 78bd 2de2 6dbd
00000020: 5406 633c c694 7bbb 380f 7a3d 49fd e9bc
00000030: 39d0 2f3d 3d6f 5cbd 3cd0 3a3d e9eb 7f3c
00000040: bf47 f93c 4567 0f3d 8c6a 1fbd b308 50bd
00000050: dc51 5d3b 7014 90bc d52d 923c 74e7 4ebd
00000060: 1bec 4bbd 1c72 1e3d 0cae 033d fd81 1abc
00000070: e1c7 99bb 7cab 15bd 2a95 77bb 1021 79bd
00000080: 3d2e 0d3c bdef ea3c 122f d1bb c4eb 37bd
00000090: 70d7 5bbd a595 0bbd 9148 c43c 0c2f 42bd
000000a0: 600c 7dbb a301 283d 9a71 803c 8f25 46bd
000000b0: 2188 7abd 004e 383d 1459 1dbc 2a1a 49bd
000000c0: 2987 503d 434b 1d3d 9aab 73ba d608 193c
000000d0: 2c04 043d 9c15 7d3d d0ec 043d f876 3abd
000000e0: a638 5a3d b3a4 02bd 7f7a 83bb db3b 9a3c
000000f0: 6a21 c53c 8ccb 6bbc 1b0b 043c cfc7 34bc
00000100: 8b7e 4f3d c238 5a3d 0946 41bd 869c 65bd
00000110: f48a 423d 12c9 4fbd 8762 153b 0b6c d3bb
00000120: 2098 4e3d 8ee2 573d dd00 be3c 159a 3a3d
00000130: 243e 313d 2386 00bd db84 fcbc 5951 083d
00000140: c990 a9bd 968c 89bc 8eb7 5ebd f8ee 143d
00000150: 87ca f9bc bc47 32bd 169b 07bd e2d5 3b3d
00000160: 1eb8 5abc 0130 6dbd 2a7c 123d c941 d43c
00000170: 5d1c 81bb 6496 49bc f988 4b3d cb2b 3a3d
00000180: fccf 9fbc 98ba 403d 685e 28bd 6748 5c3d
00000190: 4308 b2ba fbf4 a3bc e459 433c 7a6c b23c
000001a0: 0382 4d3d 7e0a 3dbd 0d21 513d 4f4a 24bc
000001b0: 4c86 273d ccf0 81bd ddc3 44bd c70e 90bc
000001c0: d8ee 0a3d 5ee9 cfbb 9f5f e03c e68b 80bd
000001d0: 503f 6dbd a555 e13c 25d1 2bbd fec9 01bd
0.051897228 0.010159475 0.0025618952 -0.018863752 0.0073585664 0.03773348 -0.06060414 -0.058077026
0.013856489 -0.0038388236 0.06104967 -0.028563159 0.042923186 -0.053817023 0.045608744 0.01562021
0.030429719 0.035010595 -0.03891997 -0.050789546 0.0033770716 -0.01758787 0.01784412 -0.0505137
-0.049785715 0.038683042 0.032148406 -0.009430406 -0.004693017 -0.036540493 -0.0037778118 -0.060822546
0.008616981 0.02867877 -0.006383785 -0.044902578 -0.053672254 -0.03407826 0.023960384 -0.04740815
-0.0038612112 0.041017186 0.01567917 -0.048375662 -0.06116498 0.04499626 -0.009603757 -0.049097218
0.05091015 0.038401853 -0.0009295285 0.009340486 0.03223054 0.061788186 0.032452404 -0.045523614
0.05327668 -0.03189535 -0.0040124054 0.01882737 0.024063785 -0.014391791 0.008059288 -0.011033966
0.05065779 0.053276785 -0.04718593 -0.056057476 0.047495797 -0.050728865 0.0022794323 -0.0064520887
0.050438046 0.052706294 0.023193771 0.0455571 0.043272153 -0.031377923 -0.03082507 0.033280704
-0.08279569 -0.01679067 -0.05437427 0.03636071 -0.03049208 -0.043525442 -0.033106886 0.04585827
-0.013349561 -0.05790711 0.035762943 0.025910275 -0.0039401487 -0.012303922 0.049691174 0.04545192
-0.019508354 0.04705295 -0.041105658 0.053779986 -0.0013582784 -0.020014277 0.011923287 0.021780241
0.050172817 -0.046152584 0.05105691 -0.010027482 0.04089956 -0.063447565 -0.048038352 -0.017585171
0.033919185 -0.006344958 0.027389346 -0.062766835 -0.057921708 0.027506659 -0.041947503 -0.031686775

fc2.weight f4 [84, 120]
00000000: 6ff4 f03d e69f 813d 40bc 1dbd 78fa 8dbc
00000010: 7087 65bd 90e9 85bd c8cb a3bd 1920 a93d
00000020: 68f7 3dbc c28b 893d 9a5c c83d a8c1 e9bc
00000030: 6e74 b6bd ed3b 0ebd 4095 aebc 3e1a ae3d
00000040: 4950 0d3d a643 35bd 65c0 fa3d 07f2 453e
00000050: 509e b73c d205 ef3c 4cdb 27be 5a48 3c3d
00000060: 78d5 753d 3f88 893b cb8b b13d 5ca4 39bd
00000070: 29a4 41bd a011 8e3d 799f d4bd ea2a 033e
00000080: 8b96 4fbe 7929 0fbc 517a 0b3d fc49 103e
00000090: 9be1 a73d 3d64 80bc 8b3a d1bd 7471 9fbd
000000a0: 85b8 ecbd 79f1 313d ba8a 09bd 4dfc 35bd
000000b0: 4dc6 75bd 6544 b4bd 3656 af3c 551a cb3d
000000c0: a98a 38bd 76fe e63b 7f3a 1a3d ee07 e4bd
000000d0: 1604 a83d 4abc 1e3c d80c c63d 6db3 a8bd
000000e0: 51ba 77bd 9864 b83d 0750 aebd 250d a73d
000000f0: 1287 833d 850b 4b3c 83a2 fdbd 80e6 b23b
00000100: d823 0c3e 8d82 c63b a97e d7bd 4ccb f53c
00000110: a44b 62bd 4e4b 343d e91f 5bbd 363f cebc
00000120: aebc a1bb 6779 86bd 0dae 13be 9fde df3d
00000130: 5469 943d f3bf 453d 4231 043d b9e8 293e
00000140: e211 053e dfe5 c8ba c7ea dfbd 6947 11bd
00000150: 5b86 ce3d 2e4b 043e 529b 9f3c 3b03 67bd
00000160: 9e62 293d fc00 e7bc 84b7 09be 4744 873d
00000170: 93d2 123c 2321 103e eb38 c13d f839 793c
00000180: 90a1 a33d 569e ccbc 392b 89bd 05aa 973d
00000190: 080a 533d 5577 a73b b54b c3bc b58d 25be
000001a0: b8e2 4fbd 12f5 46bd 8166 063d b232 c3bd
000001b0: ed0c e8bb 252e 063e 8cce 133d c8d1 433d
000001c0: 7218 123d c29d 2e3d d350 013d 5566 7b3d
000001d0: 89fe 3fbd 32d8 a63c 0e21 b33d 3404 95bc
000001e0: 0c48 e8bd f5f8 f03b d755 c1bd a04c 43bd
000001f0: 5ad9 71bd a027 9b3d 268f 0f3d d21d 223d
00000200: 36a2 bd3d e903 f63d 0274 fd3c 8f6d 7a3d
00000210: 3e25 ab3d 4a5e 3ebd bfe7 7cbd 16da ffbc
00000220: 72c7 cc3c b05b 0d3d 9bd5 f63c debd 60bb
00000230: 3267 ac3d 365d 13bd 1012 71bd bda1 b4bc
00000240: a62b c3bd 357c aa3c 7458 a2bd 8b37 003c
00000250: ee6d 293d c1bf a1bc d991 273c 907e aebd
00000260: 9a98 d2bc b7bc 133d cfde cabd 827a a1bd
00000270: a9a7 ce3c 9a7e 3fbd dace 1f3c 8592 3a3d
00000280: 5b0d 503d 3e03 273d 7262 793d 251f dfbd
00000290: 7568 ecbd c1e4 2e3d 0fe4 57bc e730 453d
000002a0: 0ab0 6f3d 667c fcbc 3f18 ddbd 553b c43c
000002b0: 64aa 35bd 824e 88bd 8fc8 d23d edb1 32bd
000002c0: 436a 07bd 4ec4 f93c 1396 21bd 92fe ae3d
000002d0: 83c9 643d dd67 593d d2ab 21be 0fb5 333d
000002e0: 5b47 9fbd 1bd3 2e3a 4ce5 dabc 18c6 a0bc
000002f0: db8b 42bd d522 11bd 911a 3a3d dfdf 853d
00000300: 1cbb cabd 649a b73d 69be ae3d 4eb7 e73c
00000310: f0ce c23d 27be 0a3b 94a0 25bc 4f97 2fbc
00000320: 2251 9f3c 6b7b a0bd a787 f03d 21e6 cc3c
00000330: 8a82 9fbd 8f48 3abb 13ca 083d 89e7 4c3d
00000340: d97f cabd 5974 53bd 93d2 ccbc 03bf 373d
00000350: ad8c df3d ed08 96bd 41a7 883c a9f0 e2bb
00000360: 45e2 99bc bb8b 45bd 6530 ad3d c731 983d
00000370: 32c7 be3d adc8 ff3d 0dee 003c 559c 39bc
00000380: 5378 78bd f9b2 67bd c8dd 5e3d 766a e53d
00000390: 9750 26bd 4951 e33d 9e55 503d d49b dcbd
000003a0: 6b86 bdbd 4ad0 56bc c464 603d 6873 b5bd
000003b0: 92f4 cebd 7648 99bd bad5 81bd 62b9 9a3a
000003c0: e227 823d 5bd9 4cbd da32 01bd 6d7e 433d
000003d0: 136c 0abd e463 aabd 2dfb 393c 26a6 c53c
000003e0: 0c28 f4ba 869f de3c a947 433d 19a7 c73c
000003f0: dbd6 5b3d b5e5 5ebd 9a2b 4d3b c724 c5bd
0.11765372 0.06329326 -0.038509607 -0.017331347 -0.056037366 -0.06538689 -0.079978526 0.08258075
-0.011594631 0.0671611 0.09783287 -0.028534725 -0.08908926 -0.03472512 -0.021311402 0.08501099
0.034500394 -0.044253968 0.122437276 0.19330607 0.022414356 0.02917758 -0.16392249 0.045967437
0.060018033 0.00419715 0.086692415 -0.04532276 -0.047275696 0.069369555 -0.103819795 0.12809339
-0.20272271 -0.008737915 0.034052197 0.14090723 0.08197328 -0.015672797 -0.10216244 -0.07785311
-0.11558632 0.043443177 -0.033579566 -0.044430066 -0.060003567 -0.08802108 0.021403413 0.09917132
-0.04505411 0.007049377 0.037653442 -0.11134325 0.08203904 0.009688446 0.096704185 -0.08237348
-0.06048042 0.09003562 -0.08511358 0.08156804 0.06422247 0.012392883 -0.12384512 0.0054596066
0.13685548 0.0060580433 -0.105222054 0.030004166 -0.055247918 0.04401713 -0.05349723 -0.025176626
-0.0049358224 -0.065661244 -0.14421864 0.109311335 0.07246652 0.04827876 0.03227354 0.16592683
0.12995103 -0.0015327296 -0.10933452 -0.035468493 0.1008422 0.12919304 0.019483242 -0.056399565
0.041353814 -0.028198712 -0.13448912 0.0660482 0.008961338 0.1407514 0.09434684 0.015211575
0.079898 -0.024977844 -0.06697697 0.074054755 0.05152324 0.005110661 -0.02383981 -0.16167338
-0.050753325 -0.04857356 0.0328126 -0.09531154 -0.007081619 0.1310354 0.03608565 0.047807485
0.035667844 0.04263092 0.03157122 0.06137689 -0.046873603 0.020366762 0.08746539 -0.01819048
-0.11341867 0.0073538967 -0.09440201 -0.047680497 -0.059045173 0.07575917 0.035048626 0.03957922
0.09259455 0.120124646 0.030939106 0.06113964 0.08356713 -0.04647664 -0.061744448 -0.031231921
0.024997447 0.03451127 0.030131152 -0.0034292857 0.084181204 -0.035977565 -0.058855116 -0.02204978
-0.0952981 0.02081118 -0.07927027 0.0078257425 0.041364603 -0.019744756 0.010227644 -0.08520234
-0.025707532 0.036068644 -0.099057786 -0.07884695 0.025226431 -0.046751596 0.009753907 0.04554989
0.050793987 0.040774576 0.0608849 -0.10894612 -0.11543361 0.042698625 -0.013176932 0.04814234
0.058517493 -0.030821037 -0.1079564 0.023954073 -0.04435195 -0.06655599 0.1029216 -0.043626714
-0.033060323 0.030489113 -0.039449763 0.08544649 0.05585624 0.053077567 -0.157882 0.043873843
-0.07777282 0.00066690304 -0.026720665 -0.019625708 -0.047496658 -0.03543361 0.045435492 0.06536841
-0.098989695 0.089649945 0.085324116 0.028285649 0.095121264 0.0021170469 -0.010109086 -0.010717227
0.019447867 -0.0783604 0.11744624 0.025012078 -0.0778857 -0.0028424596 0.033395838 0.050025497
-0.09887666 -0.05162463 -0.025002753 0.044859897 0.10915504 -0.07325921 0.016681315 -0.0069256616
-0.018784652 -0.04822896 0.08456496 0.07431369 0.09315337 0.12489448 0.007869256 -0.011328776
-0.060661625 -0.056567166 0.054410726 0.112019464 -0.0406042 0.11099488 0.0508629 -0.10771909
-0.09254154 -0.013111183 0.054783598 -0.088599026 -0.10105242 -0.07484524 -0.06339593 0.0011804516
0.06355263 -0.050011974 -0.031542636 0.04772799 -0.033794474 -0.08319834 0.011351389 0.024127077
-0.0018627658 0.027175676 0.047675762 0.02437167 0.0536717 -0.054418284 0.0031306506 -0.09626155

fc2.bias f4 [84]
00000000: 528f 2d3d 6ca0 2d3c 1acf 82bd d9f4 ba3d
00000010: 306d e23d b4c4 9f3d ece8 9b3d ad44 85bc
00000020: a093 4b3c f8da 5e3d 0c41 2fbc 9d66 ad3d
00000030: 0f1a 653d 0a66 99bc 2e68 bfbd 42fe 4b3d
00000040: 5eba 303d 863f 57bd 885c 1c3d 47f4 d7bc
00000050: 5b86 c1bc 14c7 8fbd 8bcb c4bc baf3 3e3d
00000060: 5f8f 843d 5069 903d ea8d b139 437f 8abc
00000070: f7fe 893d b5b0 9f3d ac69 1c3c fbfa ea3c
00000080: ae01 ec3d c96f c83d e8c8 8fbd ea58 a2bc
00000090: b9b0 c6bd 83c4 b93d fae8 b7bc 2edc 8dbc
000000a0: 9b76 ec3b e7a1 843d 1863 8b3c 6a34 babd
000000b0: c14a 193d 0d81 8fbd 0554 6d3d 1868 b73a
000000c0: cab8 6d3b b239 ddbb 3239 8ebc ebe7 813d
000000d0: 2aa4 80bd 3b54 0d3d f3d1 8d3d e0f2 953d
000000e0: fba8 69bd e09f 203c 54f6 98bd cd37 4a3d
000000f0: f534 dfbc ae17 513c 90fc 833d 52c0 dbbc
00000100: 6fff 09bc 6441 b03d 911a 9ebb a832 903d
00000110: 0bc5 b53d fc4d 723d 1c20 cf3d 0c02 b63d
00000120: a96f b43c a28a 6d3c 69b7 a43d 9084 703d
00000130: d725 0f3d 3828 8b3d d60f b73d 3e3f b9bb
00000140: b29d 2c3d 2909 13bd 9f16 c4bc 7313 f1bb
0.04237301 0.01059733 -0.06387158 0.09128732 0.11055982 0.0780119 0.07612786 -0.016268099
0.012425333 0.054408044 -0.010696661 0.084668376 0.055933055 -0.018725414 -0.093460426 0.049803026
0.043146484 -0.052550815 0.038174182 -0.026361598 -0.023623636 -0.07020393 -0.024022838 0.046619155
0.06472658 0.07051337 0.00033865805 -0.016906386 0.06738084 0.07797376 0.0095466785 0.02868413
0.11523758 0.09786946 -0.07020742 -0.019817788 -0.09701676 0.09070685 -0.02244996 -0.017316904
0.0072162873 0.06476193 0.017015025 -0.090920284 0.037424807 -0.07007036 0.057941455 0.0013992814
0.0036273473 -0.0067512626 -0.017361257 0.06343063 -0.06281312 0.034504157 0.0692481 0.07321715
-0.057045918 0.009803742 -0.07468858 0.049369622 -0.027246932 0.012761993 0.06444657 -0.026825104
-0.0084227165 0.08606222 -0.0048249443 0.07040912 0.088754736 0.059156403 0.10113546 0.08887109
0.0220259 0.014498385 0.08042795 0.05872017 0.034948196 0.067947805 0.08938567 -0.005653291
0.042142577 -0.035897408 -0.023936568 -0.007357055

fc3.weight f4 [10, 84]
00000000: b4d1 5c3e 3190 a8bc 563b 12bd 9fd1 57be
00000010: 84fa f03d 6860 413d 42d6 d83d 1b0b df3d
00000020: 72e9 06bd f785 183e 3c3a a7bd 2d82 443e
00000030: 7f7b d6bd ecd7 06be 1281 873d ccb9 32be
00000040: ce14 7fbd 9e1d 79bd 4dca 3ebd c3c9 323d
00000050: 9dd4 b4bd 7b00 903d 122a f93d 1c31 3abe
00000060: eecc 95bd e591 a13e a584 d6bc 0866 1aba
00000070: 18ff e4bd 2dc4 24be 8399 433d 0198 023e
00000080: 08cb 993b 401c 57be 9549 c33c 19a7 44bd
00000090: c924 0d3c f397 d8bd 95ed 23bd a6f4 543d
000000a0: 72eb b3bd 91bf a53e 9cd1 0dbe 4144 183e
000000b0: 6d71 89be c331 333d 85bd 3a3d 40ed ccbd
000000c0: 03af f2bd c455 19be af05 b1bd ba89 8bbd
000000d0: 9851 c1bd aeeb e93d faf0 4f3e 4805 5abd
000000e0: 9301 87bc 8322 f2bd bcfe 21be d21e 67be
000000f0: b9fd e63d 662a 643d c2a9 083d cb25 323d
00000100: b778 cb3d 63ad eebd 842d 09be 000b fd3d
00000110: 87f4 25be a888 533e 18a5 1cbe 1f81 80bd
00000120: 7ad6 513b a4a0 9bbe f596 eebd d227 773d
00000130: 7fcb 173e 343f 613d 3428 863e c5dd 2dbe
00000140: 3ed4 b23d 2cdf 01ba 37c3 a53d 5da1 283c
00000150: 2bc7 8ebd 889a 1ebe ef12 f6bc e9f7 e93e
00000160: ab66 543d 871a 12bc 2170 153d 723a 173e
00000170: 8e91 4b3d 2c8d d03d 38af 983d 4821 77be
00000180: 8703 f13a 9b52 56be 02a8 46bd 959b 1e3e
00000190: 7a56 663e bec9 a33d d6db bf3d 0fee 92bd
000001a0: 70e3 68be 4c0c c13d 0414 82bd 18cf b43d
000001b0: 2f65 b53b 214e 763d de4c 0b3e e802 cabd
000001c0: 2459 f43c 9bad 813c 599c 9abd 94a2 d6bc
000001d0: d17b 4fbe 4251 bc3e 865a 9fbd ed42 9fbd
000001e0: 2892 82bd 4ae8 333d b4f0 b8be 5353 84bd
000001f0: 5b14 83bd 8ee3 4cbe db20 663e b5a0 97be
00000200: 9764 373d 32e9 cd3c 90b4 fbbc 0eee 44bc
00000210: a432 1c3a 6842 62be 20a2 efbd ee6b 483e
00000220: 27a0 5b3d faf8 02bd d9f4 29be 8ba9 bcbd
00000230: 8eef b1bd 162d 203d 513a 0fbe 24ba 453d
00000240: 017f 713e 9484 5d3a cacf a13d fa3b 30bb
00000250: 4cca 123e 650e 99bc 6177 d03c 2d2f 6a3d
00000260: 1ccc b7bd eb37 a3bc 7769 49be 113b 1abe
00000270: 82a2 a13d ff8f bf3e c56c b2bd af9c a63d
00000280: 3b74 01be e828 dabb 499a dd3c d634 08be
00000290: ee5d ab3d 0973 183d 72e8 7abe 301c 143e
000002a0: dd6c d2bd 8b36 623e b0ac 393d 35e7 07be
000002b0: 3889 2a3d ae9f d83c 2421 b3bd c8ea d23d
000002c0: b37d 9f3c 1142 46bd 13fe 64be 09f9 2d3c
000002d0: 3072 6b3d 4f24 8ebc 2e8e 05bc 75cf 00be
000002e0: 496b 333c 7b35 d43d f73e aabd 145b 7b3e
000002f0: 72dc d4bd 71d5 123e 9490 913d 540d 6abd
00000300: 50ef b33c e936 ac3d 5f84 933e 05a6 9f3d
00000310: baa5 f93d 3088 48bc f987 c1bd 81a5 843e
00000320: 2abc 053e ff21 5d3d bf1b edbc 92df 93bc
00000330: 51db 053e 9e10 c23d 30e6 ef3d fc27 dbbd
00000340: 4a71 fdbb e44e 81be 9259 30be a05e 54bd
00000350: bd7a 90bc 2d38 043e 43b6 16be cb69 f93d
00000360: f22f 92bd 03f7 853e 9cb6 27bd 67b8 e6bd
00000370: fdd8 e13c e430 b2bc 7f21 3cbc 9523 86be
00000380: 45f0 69bd cba5 d73d ee64 213e 6e85 7f3e
00000390: b4b5 8d3d 1440 26bd f310 48bd 1203 f0bc
000003a0: 5612 893e b096 08bd 9c13 45bd fbc0 263e
000003b0: 16e0 cdbd 27af e9bd 270c f3bd 0f1a bf3d
000003c0: 06ef 1abd ba67 873d c3c4 8bbd 3702 cdbd
000003d0: 547b c33d cdcf 3a3d fa0f bf3d a34c d3bc
000003e0: 5323 c33c b114 9abd c62e dfbd 0cd8 203e
000003f0: 6d02 b3be 74ee 5dbc 6ff5 843d 3661 63be
0.2156437 -0.020576568 -0.03570112 -0.21076058 0.11766532 0.04721108 0.105877414 0.1089079
-0.032937475 0.14894854 -0.08165404 0.19190283 -0.10472774 -0.13168305 0.06616415 -0.17453688
-0.0622757 -0.06081926 -0.046579648 0.043649446 -0.08829615 0.07031342 0.121662274 -0.18182796
-0.07314478 0.3155662 -0.026186297 -0.00058898376 -0.11181468 -0.1609046 0.047753822 0.12753297
0.0046933927 -0.2100687 0.023838798 -0.04801092 0.008614727 -0.10575857 -0.040021498 0.051991127
-0.08785142 0.32372716 -0.13849491 0.14869787 -0.2684435 0.04374863 0.045590896 -0.10006189
-0.11849787 -0.14974123 -0.08643662 -0.06813379 -0.09439391 0.114219055 0.20306769 -0.053227693
-0.016480243 -0.11822989 -0.1581983 -0.22570351 0.112788625 0.055704497 0.03336502 0.043493073
0.09935134 -0.11654165 -0.13396269 0.12355614 -0.16206561 0.20657599 -0.15297353 -0.06274628
0.0032018707 -0.30395997 -0.116498865 0.06034071 0.14823721 0.054991916 0.26202548 -0.1697913
0.08731888 -0.00049542147 0.08093875 0.010292378 -0.06971582 -0.15488636 -0.030038325 0.45696953
0.051855724 -0.008917457 0.036483888 0.14768389 0.04969936 0.101831764 0.07455295 -0.2413379
0.0018387892 -0.20929949 -0.04850007 0.15489037 0.22493926 0.07997464 0.09368102 -0.07174312
-0.2274301 0.094261736 -0.06351474 0.088285625 0.0055357437 0.060133103 0.13603541 -0.098638356
0.029827662 0.015829852 -0.07549352 -0.02620057 -0.20262076 0.36780745 -0.07780938 -0.07776437
-0.06375533 0.0439227 -0.36121142 -0.06461205 -0.06400367 -0.2000868 0.22473471 -0.29614797
0.044773664 0.02513561 -0.030725747 -0.012019647 0.0005958474 -0.22095644 -0.11700845 0.19572422
0.05361953 -0.031975724 -0.16597308 -0.09212025 -0.086882696 0.039105497 -0.1398709 0.04827322
0.23583604 0.00084502366 0.07900961 -0.0026891218 0.14334983 -0.018683622 0.02544755 0.057173897
-0.08974478 -0.019924125 -0.19669138 -0.15061595 0.07892324 0.37414548 -0.087121524 0.08135354
-0.12641995 -0.0066577084 0.027051108 -0.13301405 0.08367525 0.03721908 -0.24502733 0.14463878
-0.1027467 0.22091119 0.045330703 -0.13271792 0.04163477 0.026443329 -0.087465554 0.10298687
0.019469118 -0.04840285 -0.22362547 0.010618457 0.057481945 -0.017351298 -0.008151574 -0.12579139
0.010950872 0.10361763 -0.08312791 0.24546462 -0.10393609 0.14339234 0.07107654 -0.057141617
0.021964699 0.08408911 0.2881193 0.077953376 0.12189813 -0.012239501 -0.09449763 0.2590752
0.1306006 0.0539875 -0.028943894 -0.018050943 0.13071944 0.09475826 0.11713827 -0.10700986
-0.0077344524 -0.252555 -0.17221668 -0.051848054 -0.017636651 0.12912054 -0.14717965 0.121783815
-0.07138051 0.26165017 -0.040945634 -0.11265641 0.027569288 -0.021751828 -0.0114825955 -0.26199022
-0.057113905 0.105296694 0.15761158 0.24953243 0.06919423 -0.040588453 -0.04884429 -0.029298339
0.26771802 -0.03334683 -0.048114404 0.16284554 -0.100525066 -0.11410361 -0.11867552 0.09331142
-0.037825607 0.06611581 -0.06824639 -0.10010188 0.09545007 0.04560833 0.09329219 -0.02579338
0.023820555 -0.07523478 -0.10897593 0.15707415 -0.34962788 -0.013545621 0.06492125 -0.22205052

fc3.bias f4 [10]
00000000: 8793 3dbd 74b7 8c3d 84b4 debd 3489 b13c
00000010: 7845 a0bd ef2b 1c3c 6ce3 023d b52f 96bd
00000020: f4ad 7a3d 6447 93bd
-0.04628327 0.068709284 -0.108742744 0.021671869 -0.0782575 0.009531959 0.031955168 -0.07333318
0.06120105 -0.07191351
